…
04-26 17:35:30 <args> max_epoch: 100
04-26 17:35:30 <args> learning_rate: 0.001
04-26 17:35:30 <args> weight_decay: 0.01
04-26 17:35:30 <args> gamma: 0.98
04-26 17:35:30 <args> print_step: 20
04-26 17:35:30 <args> checkpoint_dir: ../checkpoint
04-26 17:35:30 <args> save_model: True
04-26 17:36:30 train_datasize: 70000 | val_datasize: 30000
04-26 17:36:33 ----------------------------------------------------------------
04-26 17:36:33         Layer (type)               Output Shape         Param #
04-26 17:36:33 ================================================================
04-26 17:36:33              input-0              [-1, 1, 5120]               0
04-26 17:36:33             Conv1d-1              [-1, 4, 5114]              32
04-26 17:36:33        BatchNorm1d-2              [-1, 4, 5114]               8
04-26 17:36:33               ReLU-3              [-1, 4, 5114]               0
04-26 17:36:33          MaxPool1d-4              [-1, 4, 2557]               0
04-26 17:36:33             Conv1d-5              [-1, 8, 2555]             104
04-26 17:36:33        BatchNorm1d-6              [-1, 8, 2555]              16
04-26 17:36:33               ReLU-7              [-1, 8, 2555]               0
04-26 17:36:33          MaxPool1d-8              [-1, 8, 1277]               0
04-26 17:36:33             Conv1d-9             [-1, 16, 1275]             400
04-26 17:36:33       BatchNorm1d-10             [-1, 16, 1275]              32
04-26 17:36:33              ReLU-11             [-1, 16, 1275]               0
04-26 17:36:33         MaxPool1d-12              [-1, 16, 637]               0
04-26 17:36:33            Conv1d-13              [-1, 64, 635]           3,136
04-26 17:36:33       BatchNorm1d-14              [-1, 64, 635]             128
04-26 17:36:33              ReLU-15              [-1, 64, 635]               0
04-26 17:36:33         MaxPool1d-16              [-1, 64, 317]               0
04-26 17:36:33            Conv1d-17             [-1, 128, 315]          24,704
04-26 17:36:33       BatchNorm1d-18             [-1, 128, 315]             256
04-26 17:36:33              ReLU-19             [-1, 128, 315]               0
04-26 17:36:33         MaxPool1d-20             [-1, 128, 157]               0
04-26 17:36:33            Conv1d-21             [-1, 256, 155]          98,560
04-26 17:36:33       BatchNorm1d-22             [-1, 256, 155]             512
04-26 17:36:33              ReLU-23             [-1, 256, 155]               0
04-26 17:36:33         MaxPool1d-24              [-1, 256, 77]               0
04-26 17:36:33            Conv1d-25              [-1, 512, 75]         393,728
04-26 17:36:33       BatchNorm1d-26              [-1, 512, 75]           1,024
04-26 17:36:33              ReLU-27              [-1, 512, 75]               0
04-26 17:36:33         MaxPool1d-28              [-1, 512, 37]               0
04-26 17:36:33            Conv1d-29             [-1, 1024, 35]       1,573,888
04-26 17:36:33       BatchNorm1d-30             [-1, 1024, 35]           2,048
04-26 17:36:33              ReLU-31             [-1, 1024, 35]               0
04-26 17:36:33 AdaptiveMaxPool1d-32              [-1, 1024, 1]               0
04-26 17:36:33            Linear-33                  [-1, 256]         262,400
04-26 17:36:33              ReLU-34                  [-1, 256]               0
04-26 17:36:33            Linear-35                   [-1, 64]          16,448
04-26 17:36:33              ReLU-36                   [-1, 64]               0
04-26 17:36:33            Linear-37                    [-1, 2]             130
04-26 17:36:33 ================================================================
04-26 17:36:33 Total params: 2,377,554
04-26 17:36:33 Trainable params: 2,377,554
04-26 17:36:33 Non-trainable params: 0
04-26 17:36:33 ----------------------------------------------------------------
04-26 17:36:33 Input size (MB): 0.02
04-26 17:36:33 Forward/backward pass size (MB): 6.71
04-26 17:36:33 Params size (MB): 9.07
…
