…
05-09 21:52:26 <args> weight_decay: 0.001
05-09 21:52:26 <args> gamma: 0.99
05-09 21:52:26 <args> print_step: 20
05-09 21:52:26 <args> checkpoint_dir: ../checkpoint
05-09 21:52:26 <args> save_model: True
05-09 21:52:26 <args> save_N_data: 100
05-09 21:52:26 <args> data_name: periodicV2
05-09 21:52:28 train_datasize: 21000 | val_datasize: 9000
05-09 21:52:30 ----------------------------------------------------------------
05-09 21:52:30         Layer (type)               Output Shape         Param #
05-09 21:52:30 ================================================================
05-09 21:52:30              input-0              [-1, 1, 1024]               0
05-09 21:52:30             Conv1d-1              [-1, 4, 1018]              32
05-09 21:52:30        BatchNorm1d-2              [-1, 4, 1018]               8
05-09 21:52:30               ReLU-3              [-1, 4, 1018]               0
05-09 21:52:30          MaxPool1d-4               [-1, 4, 509]               0
05-09 21:52:30             Conv1d-5               [-1, 8, 507]             104
05-09 21:52:30        BatchNorm1d-6               [-1, 8, 507]              16
05-09 21:52:30               ReLU-7               [-1, 8, 507]               0
05-09 21:52:30          MaxPool1d-8               [-1, 8, 253]               0
05-09 21:52:30             Conv1d-9              [-1, 16, 251]             400
05-09 21:52:30       BatchNorm1d-10              [-1, 16, 251]              32
05-09 21:52:30              ReLU-11              [-1, 16, 251]               0
05-09 21:52:30         MaxPool1d-12              [-1, 16, 125]               0
05-09 21:52:30            Conv1d-13              [-1, 64, 123]           3,136
05-09 21:52:30       BatchNorm1d-14              [-1, 64, 123]             128
05-09 21:52:30              ReLU-15              [-1, 64, 123]               0
05-09 21:52:30         MaxPool1d-16               [-1, 64, 61]               0
05-09 21:52:30            Conv1d-17              [-1, 128, 59]          24,704
05-09 21:52:30       BatchNorm1d-18              [-1, 128, 59]             256
05-09 21:52:30              ReLU-19              [-1, 128, 59]               0
05-09 21:52:30         MaxPool1d-20              [-1, 128, 29]               0
05-09 21:52:30            Conv1d-21              [-1, 256, 27]          98,560
05-09 21:52:30       BatchNorm1d-22              [-1, 256, 27]             512
05-09 21:52:30              ReLU-23              [-1, 256, 27]               0
05-09 21:52:30         MaxPool1d-24              [-1, 256, 13]               0
05-09 21:52:30            Conv1d-25              [-1, 512, 11]         393,728
05-09 21:52:30       BatchNorm1d-26              [-1, 512, 11]           1,024
05-09 21:52:30              ReLU-27              [-1, 512, 11]               0
05-09 21:52:30         MaxPool1d-28               [-1, 512, 5]               0
05-09 21:52:30            Conv1d-29              [-1, 1024, 3]       1,573,888
05-09 21:52:30       BatchNorm1d-30              [-1, 1024, 3]           2,048
05-09 21:52:30              ReLU-31              [-1, 1024, 3]               0
05-09 21:52:30 AdaptiveMaxPool1d-32              [-1, 1024, 1]               0
05-09 21:52:30            Linear-33                  [-1, 256]         262,400
05-09 21:52:30              ReLU-34                  [-1, 256]               0
05-09 21:52:30            Linear-35                   [-1, 64]          16,448
05-09 21:52:30              ReLU-36                   [-1, 64]               0
05-09 21:52:30            Linear-37                    [-1, 3]             195
05-09 21:52:30 ================================================================
05-09 21:52:30 Total params: 2,377,619
05-09 21:52:30 Trainable params: 2,377,619
05-09 21:52:30 Non-trainable params: 0
05-09 21:52:30 ----------------------------------------------------------------
05-09 21:52:30 Input size (MB): 0.00
05-09 21:52:30 Forward/backward pass size (MB): 1.15
05-09 21:52:30 Params size (MB): 9.07
…
