…
04-29 19:35:10 <args> max_epoch: 50
04-29 19:35:10 <args> learning_rate: 0.001
04-29 19:35:10 <args> weight_decay: 0.001
04-29 19:35:10 <args> gamma: 0.98
04-29 19:35:10 <args> print_step: 20
04-29 19:35:10 <args> checkpoint_dir: ../checkpoint
04-29 19:35:10 <args> save_model: True
04-29 19:35:10 train_datasize: 7000 | val_datasize: 3000
04-29 19:35:13 ----------------------------------------------------------------
04-29 19:35:13         Layer (type)               Output Shape         Param #
04-29 19:35:13 ================================================================
04-29 19:35:13              input-0              [-1, 1, 1024]               0
04-29 19:35:13             Conv1d-1              [-1, 4, 1018]              32
04-29 19:35:13        BatchNorm1d-2              [-1, 4, 1018]               8
04-29 19:35:13               ReLU-3              [-1, 4, 1018]               0
04-29 19:35:13          MaxPool1d-4               [-1, 4, 509]               0
04-29 19:35:13             Conv1d-5               [-1, 8, 507]             104
04-29 19:35:13        BatchNorm1d-6               [-1, 8, 507]              16
04-29 19:35:13               ReLU-7               [-1, 8, 507]               0
04-29 19:35:13          MaxPool1d-8               [-1, 8, 253]               0
04-29 19:35:13             Conv1d-9              [-1, 16, 251]             400
04-29 19:35:13       BatchNorm1d-10              [-1, 16, 251]              32
04-29 19:35:13              ReLU-11              [-1, 16, 251]               0
04-29 19:35:13         MaxPool1d-12              [-1, 16, 125]               0
04-29 19:35:13            Conv1d-13              [-1, 64, 123]           3,136
04-29 19:35:13       BatchNorm1d-14              [-1, 64, 123]             128
04-29 19:35:13              ReLU-15              [-1, 64, 123]               0
04-29 19:35:13         MaxPool1d-16               [-1, 64, 61]               0
04-29 19:35:13            Conv1d-17              [-1, 128, 59]          24,704
04-29 19:35:13       BatchNorm1d-18              [-1, 128, 59]             256
04-29 19:35:13              ReLU-19              [-1, 128, 59]               0
04-29 19:35:13         MaxPool1d-20              [-1, 128, 29]               0
04-29 19:35:13            Conv1d-21              [-1, 256, 27]          98,560
04-29 19:35:13       BatchNorm1d-22              [-1, 256, 27]             512
04-29 19:35:13              ReLU-23              [-1, 256, 27]               0
04-29 19:35:13         MaxPool1d-24              [-1, 256, 13]               0
04-29 19:35:13            Conv1d-25              [-1, 512, 11]         393,728
04-29 19:35:13       BatchNorm1d-26              [-1, 512, 11]           1,024
04-29 19:35:13              ReLU-27              [-1, 512, 11]               0
04-29 19:35:13         MaxPool1d-28               [-1, 512, 5]               0
04-29 19:35:13            Conv1d-29              [-1, 1024, 3]       1,573,888
04-29 19:35:13       BatchNorm1d-30              [-1, 1024, 3]           2,048
04-29 19:35:13              ReLU-31              [-1, 1024, 3]               0
04-29 19:35:13 AdaptiveMaxPool1d-32              [-1, 1024, 1]               0
04-29 19:35:13            Linear-33                  [-1, 256]         262,400
04-29 19:35:13              ReLU-34                  [-1, 256]               0
04-29 19:35:13            Linear-35                   [-1, 64]          16,448
04-29 19:35:13              ReLU-36                   [-1, 64]               0
04-29 19:35:13            Linear-37                    [-1, 2]             130
04-29 19:35:13 ================================================================
04-29 19:35:13 Total params: 2,377,554
04-29 19:35:13 Trainable params: 2,377,554
04-29 19:35:13 Non-trainable params: 0
04-29 19:35:13 ----------------------------------------------------------------
04-29 19:35:13 Input size (MB): 0.00
04-29 19:35:13 Forward/backward pass size (MB): 1.15
04-29 19:35:13 Params size (MB): 9.07
…
